…
2024-08-30 11:31:38.492062: W tensorflow/core/common_runtime/gpu/gpu_device.cc:1960] Cannot dlopen some GPU libraries. Please make sure the missing libraries mentioned above are installed properly if you would like to use GPU. Follow the guide at https://www.tensorflow.org/install/gpu for how to download and setup the required libraries for your platform.
Skipping registering GPU devices...
Using CPU
The MNIST database has a training set of 60000 examples.
The MNIST database has a test set of 10000 examples.
Model: "sequential"
_________________________________________________________________
 Layer (type)                Output Shape              Param #   
=================================================================
 flatten (Flatten)           (None, 784)               0         
                                                                 
 dense (Dense)               (None, 512)               401920    
                                                                 
 dropout (Dropout)           (None, 512)               0         
                                                                 
 dense_1 (Dense)             (None, 512)               262656    
                                                                 
 dropout_1 (Dropout)         (None, 512)               0         
                                                                 
 dense_2 (Dense)             (None, 10)                5130      
                                                                 
=================================================================
Total params: 669706 (2.55 MB)
Trainable params: 669706 (2.55 MB)
Non-trainable params: 0 (0.00 Byte)
_________________________________________________________________
Test accuracy: 9.50%
Epoch 1/100
   1/1500 [..............................] - ETA: 6:25 - lo
…
===============>.] - ETA: 0s - loss: 0.0135 - accuracy: 0.9965
Epoch 24: val_loss did not improve from 0.09327
1500/1500 [==============================] - 8s 5ms/step - loss: 0.0134 - accuracy: 0.9965 - val_loss: 0.1701 - val_accuracy: 0.9815
Test accuracy: 97.82%
Model: "sequential"
_________________________________________________________________
 Layer (type)                Output Shape              Param #   
=================================================================
 CONV1 (Conv2D)              (None, 24, 24, 6)         156       
                                                                 
 POOL1 (AveragePooling2D)    (None, 23, 23, 6)         0         
                                                                 
 CONV2 (Conv2D)              (None, 19, 19, 16)        2416      
                                                                 
 POOL2 (AveragePooling2D)    (None, 9, 9, 16)          0         
                                                                 
 CONV3 (Conv2D)              (None, 5, 5, 120)         48120     
                                                                 
 FLAT (Flatten)              (None, 3000)              0         
                                                                 
 FC6 (Dense)                 (None, 84)                252084    
                                                                 
 FC7 (Dense)                 (None, 10)                850       
                                                                 
=================================================================
Total params: 303626 (1.16 MB)
Trainable params: 303626 (1.16 MB)
Non-trainable params: 0 (0.00 Byte)
_________________________________________________________________
Epoch 1/100
   1/1500 [..............................] - ETA: 6:49 - loss: 2.2802 - accurac
…
